assets/models/interfacegan_age.onnx (onnx, 5691 bytes, 1 tensors)

direction f4 [1, 512]
0	0xbd2ce8d4	-0.04221423
1	0xbd75b3de	-0.059985988
2	0x3d9c2f28	0.07626182
3	0x3b015ebb	0.0019740302
4	0xbcd818b7	-0.026378972
5	0xbdeb3bbb	-0.11486002
6	0x3d20205e	0.039093368
7	0xbadb8bd7	-0.001675005
8	0x3d36f2c3	0.04466511
9	0x3c4900b1	0.012268231
10	0xbcf9c15b	-0.030487707
11	0xbc904173	-0.017609334
12	0x3c84cd4d	0.016211176
13	0x3ced7da0	0.028990567
14	0xbb4fee9f	-0.0031727923
15	0x3c98a08f	0.018631248
16	0x3d1684d3	0.036747765
17	0x3cca796b	0.0247161
18	0xbd0e2b36	-0.034709178
19	0x3d279672	0.04091496
20	0xbd49ba69	-0.04925004
21	0xbcaa3fc9	-0.020782368
22	0x3d3576fe	0.044302933
23	0xbd20e138	-0.039277285
24	0xbc6be452	-0.0143976975
25	0x3cd0dd1f	0.025496064
26	0xbc4170ae	-0.01180665
27	0x3bfba88d	0.007680005
28	0x3d050916	0.03247937
29	0x3cf9a2b8	0.030473098
30	0x3d83a786	0.06428437
31	0xbd6f643b	-0.058445197
32	0xbd046c50	-0.032329857
33	0xbca21b3e	-0.01978838
34	0xbca932db	-0.020654133
35	0xbdaabb9b	-0.08336564
36	0x3d4baab4	0.049723342
37	0x3d00e118	0.031464666
38	0xbd082b98	-0.0332447
39	0x3d5d3a83	0.05401088
40	0xbbb329b6	-0.005467619
41	0xbcc2c339	-0.02377473
42	0x3c0acd9a	0.008471871
43	0x3d6a39d0	0.05718404
44	0xbd67e3e8	-0.056613833
45	0xbd0c4663	-0.034246814
46	0xbc8d6ef9	-0.01726483
47	0xbcc41eb3	-0.02394042
48	0xbc3ff2bc	-0.011715587
49	0x3cefc931	0.02927074
50	0x3d973b71	0.073843844
51	0xbd1b7c4e	-0.037960343
52	0xbd45ae93	-0.04826219
53	0x3c3350c4	0.010944549
54	0x3be2d9d9	0.006922942
55	0xbc2896e1	-0.010289879
56	0x3d4502e7	0.04809847
57	0xbc50fc7e	-0.012755511
58	0x3c55818b	0.013031374
59	0x3bd101b8	0.0063783787
60	0xbd608a12	-0.054819174
61	0x3ddb4268	0.10706025
62	0xbcdacbf4	-0.02670858
63	0x3e01612d	0.12634726
64	0xbcd59df6	-0.026076298
65	0x3a2fabd8	0.0006701327
66	0xbd3b6855	-0.045753796
67	0xbbca8adb	-0.0061811036
68	0x3d285e6a	0.041105665
69	0x3c160375	0.009156098
70	0x3aeb1e0e	0.0017938034
71	0xbda7bd23	-0.08190372
72	0x3bfedef7	0.0077780443
73	0x3c061adf	0.0081851175
74	0xbd3e25e9	-0.046422873
75	0xbd723477	-0.059132066
76	0xbd48aa46	-0.04899051
77	0xbcd47f56	-0.025939625
78	0x3cd2e3f7	0.025743468
79	0xbe291851	-0.16513182
80	0xbc512b24	-0.012766633
81	0x3d3801f7	0.04492375
82	0xbd03fd92	-0.032224245
83	0xbc0dc3b1	-0.0086526135
84	0x3cdf041c	0.02722364
85	0x3cbfc7ab	0.023410639
86	0x3c7fb709	0.015607604
87	0xbbb174e2	-0.005415545
88	0xbca14491	-0.019686015
89	0xbc0b4dfe	-0.0085024815
90	0xbcd5ff13	-0.026122605
91	0xbbfa42d9	-0.0076373634
92	0xbcdf8128	-0.027283266
93	0x3ca083a9	0.01959403
94	0xbd21e1a1	-0.039521817
95	0x3e117602	0.14205173
96	0xbcaa1fe2	-0.020767156
97	0x39deda26	0.00042505673
98	0xbcf890c9	-0.030342476
99	0xbd71a074	-0.05899091
100	0xbb4bf72f	-0.0031122675
101	0x3d114be7	0.035472777
102	0x3c3f0049	0.011657783
103	0xbb364112	-0.002780978
104	0x3c9e9a52	0.019360695
105	0xbd8faca3	-0.0701535
106	0x3c385a14	0.011251945
107	0x3d93cc4f	0.07216703
108	0xbc1a6c2d	-0.009425205
109	0x3d42e691	0.047583167
110	0x3cbe6958	0.023243591
111	0x3d3a505d	0.045486797
112	0x3d2bc228	0.04193321
113	0xbc8fef70	-0.017570227
114	0xbd9ba162	-0.07599141
115	0x3c389228	0.011265315
116	0xbba55df2	-0.0050465995
117	0x3bedf7c1	0.0072622006
118	0xbd2939f2	-0.041315027
119	0x3c4d2632	0.0125213135
120	0xbd7ba427	-0.061435845
121	0x3ca0bd90	0.01962164
122	0xbd947f4c	-0.072508425
123	0xbd1b965b	-0.037985187
124	0x3b4db8ab	0.0031390588
125	0xbc3c4c31	-0.011492775
126	0xbb1e58e4	-0.002416187
127	0xbdc8df12	-0.09808172
128	0xbca05a56	-0.019574326
129	0xbc9abe85	-0.018889675
130	0xbc4f902d	-0.0126686515
131	0xbde9e9c4	-0.114215404
132	0xbcca1c0a	-0.024671573
133	0x3d80bae7	0.06285649
134	0x3c3589c3	0.011080208
135	0x3e0cbfec	0.13745087
136	0xbca42ed6	-0.020041864
137	0xbcf31219	-0.029671716
138	0xbd993479	-0.074807115
139	0x3df32e1a	0.118740276
140	0x3da0806b	0.07836994
141	0x3c95130c	0.018197559
142	0x3c9db377	0.019250615
143	0xbd403df4	-0.046934083
144	0x3d14d484	0.036335483
145	0xbd81916f	-0.063265674
146	0xbd06753b	-0.032826643
147	0xbd062edd	-0.032759536
148	0xbcd96ec8	-0.026542082
149	0xbd4a35bf	-0.049367663
150	0xbcb576f0	-0.02215144
151	0xbd0e6543	-0.03476454
152	0xbbd2b147	-0.0064298245
153	0xbbf16fef	-0.00736808
154	0x3c1c0ae3	0.00952408
155	0xbd451efd	-0.048125256
156	0xbb293b04	-0.002582253
157	0x3bb30c9a	0.0054641487
158	0xbca1c66b	-0.019747933
159	0xbcc90c92	-0.024542127
160	0x3d27efcb	0.04100017
161	0xbc8cf276	-0.017205458
162	0x3c38786f	0.011259182
163	0x3c87aba0	0.01656133
164	0xbcc24fc4	-0.023719676
165	0xbd50199e	-0.05080568
166	0x3cc24cfc	0.02371835
167	0x3d92e95a	0.071734145
168	0x3d0f2621	0.034948472
169	0xbb88f202	-0.00417924
170	0x3aeab6be	0.0017907245
171	0x3cf32a0c	0.029683135
172	0xbca06508	-0.019579425
173	0xbd83121c	-0.063999385
174	0xbc5207fe	-0.012819288
175	0xbcf4acb5	-0.02986751
176	0xbce69df0	-0.028151482
177	0xbbb0e06f	-0.0053978483
178	0x3c6d0df1	0.014468656
179	0x3a7b7101	0.0009591729
180	0xbd137617	-0.03600129
181	0xbb8fc48e	-0.004387445
182	0xbccf4c6c	-0.025304995
183	0x3c35ce4d	0.011096549
184	0x3ced6ba8	0.028981999
185	0x3c864566	0.016390514
186	0x3d09c6f3	0.033637
187	0xbd590d50	-0.05299121
188	0x3d5e9e93	0.054350447
189	0x3cc61314	0.024179019
190	0x3c2dca24	0.010607276
191	0xbc95ed23	-0.018301552
192	0x3ca6e429	0.020372467
193	0x3da00360	0.07813144
194	0xbbcfcb8d	-0.006341404
195	0x3da5a689	0.08088405
196	0x3b04b5d2	0.0020249975
197	0x3c054d40	0.008136094
198	0xbd2acf1e	-0.04170143
199	0x3d1eb599	0.038747404
200	0x3d5817ba	0.052757002
201	0x3ab9cd88	0.0014175633
202	0x3d0c6c3c	0.034282908
203	0xbd02ada2	-0.03190387
204	0xbdb12491	-0.086495526
205	0x3ce2396d	0.027615273
206	0xbc9bae2c	-0.01900395
207	0xbd35394c	-0.044244096
208	0x3d6dc412	0.058048315
209	0x3e022933	0.12711029
210	0x3cf67a34	0.030087568
211	0x3c31a9fd	0.010843751
212	0x3d1ae54b	0.037816327
213	0x3c417fb9	0.011810237
214	0xbd6166c0	-0.05502963
215	0x3db106c6	0.0864387
216	0x3a3c2af7	0.0007178033
217	0x3d948525	0.07251958
218	0xbd0c249e	-0.03421461
219	0x3cf7d389	0.030252235
220	0x3d826799	0.06367416
221	0xbcff4b52	-0.031163845
222	0x3ac7e21e	0.0015249883
223	0xbd791036	-0.060806476
224	0xbba61227	-0.005068082
225	0xbddf8d9d	-0.109156825
226	0x3bbbf0f4	0.005735511
227	0x3ca2d8fd	0.019878859
228	0x3dc01840	0.09379625
229	0xbd6d1f15	-0.05789097
230	0x3d0dc8c7	0.034615304
231	0xbd0db426	-0.03459563
232	0x3bfe83ff	0.0077672
233	0x3e13ada5	0.14421709
234	0x3c88cbbe	0.016698714
235	0x3c2b47fd	0.010454175
236	0xba1094ff	-0.0005515366
237	0xbcd3e542	-0.025866155
238	0x3d184e56	0.037184082
239	0x3b9c7c37	0.0047755498
240	0xbcee5381	-0.029092552
241	0xbcfac407	-0.030611051
242	0x3ce80f63	0.02832765
243	0xbb860f33	-0.0040911674
244	0xbd97c687	-0.07410913
245	0xbc072a97	-0.0082499
246	0x3c9787e8	0.018497422
247	0xbbdc21f9	-0.006717917
248	0xbd159509	-0.036519084
249	0xbd9ea866	-0.07746963
250	0xbdbdc351	-0.09265769
251	0x3d19f212	0.037584372
252	0xbd377f53	-0.04479916
253	0xbda2caaf	-0.07948815
254	0xbcf8c019	-0.030365037
255	0x3d6d2163	0.05789317
